Skin_cancer.tflite (tflite, 535108 bytes, 14 tensors)

dense_29/bias f4 [7]
000000 f8 bf 8e bb 77 87 9e 3d 52 1b 96 3e fe 68 8f 3c
       -0.0043563806 0.077406816 0.2931772 0.017506119
000010 c2 5e 4c bd c0 ac 9a be 01 02 02 bd
       -0.049895056 -0.30209923 -0.031740192

dense_28/bias f4 [32]
000000 83 90 6e bd ba 04 23 3c 8d 2f e1 3d 89 86 15 bc
       -0.058243286 0.009949857 0.10995398 -0.009126314
000010 13 d9 a0 3d 3d e4 6f 3c c5 e0 93 bb 16 2c a2 3d
       0.078539036 0.014641819 -0.0045128786 0.07918565
000020 bf c4 96 bc 93 9f a2 3b 19 ba 60 3c 1f ec 2a 3e
       -0.018404363 0.0049628704 0.013716244 0.16691636
000030 7d dc a5 3c f1 1b 54 bb b7 32 b5 3d 42 ed bf bc
       0.020246739 -0.0032365287 0.08847564 -0.023428563
000040 7b 60 01 bd 76 9b e4 3d 72 d5 25 3e 8e c8 96 bb
       -0.03158615 0.11162464 0.16194704 -0.0046015447
000050 49 54 41 bd 09 d8 40 3d 0b 82 85 bd ca 4f 09 bb
       -0.04719952 0.047081027 -0.06518944 -0.00209521
000060 2f 4c bb 3d 25 5d e3 bb 3d 6a 51 3e c6 15 99 bd
       0.0914539 -0.006938594 0.20450683 -0.07474856
000070 97 06 90 bc 06 e6 82 bc b2 ae 80 3d 1b f0 3d bb
       -0.017581267 -0.015978824 0.062833205 -0.0028982225

dense_27/bias f4 [64]
000000 66 75 b6 bc a0 6d 83 ba 82 ec 11 bc 5f af ae bb
       -0.022272777 -0.0010027178 -0.0089064855 -0.0053309645
000010 6d 17 4c bc bd cc 55 bc 0b 02 a1 3a b9 de 1c 3e
       -0.012456757 -0.013049302 0.0012283934 0.15319337
000020 75 eb 14 3d 06 c7 00 3c dd 94 1a 3c d7 2c 4f bc
       0.03635736 0.007859951 0.009434906 -0.012644968
000030 9c 7e 50 bb 03 0f 7a 3d 22 20 47 bc e1 ba 40 bc
       -0.0031813746 0.061049473 -0.012153657 -0.011763305
000040 7b 90 b0 3d 98 8e 67 bc f4 3a 10 bb 07 03 47 bc
       0.086213075 -0.014133118 -0.0022007795 -0.012146718
000050 09 a1 31 3b 29 9f 96 3d 15 be 8b bb 96 9f 37 bc
       0.002710404 0.07354576 -0.004264603 -0.011207482
000060 28 48 d9 bb 72 2f 89 bc 2d b1 b8 bb 16 51 a5 3c
       -0.006630916 -0.016746257 -0.0056363554 0.020180266
000070 96 32 52 3d 46 a2 15 3c c0 8e 17 bb d3 1f c1 bc
       0.051317774 0.009132927 -0.0023125857 -0.023574745
000080 c0 eb 61 ba ec b7 88 3b c7 96 26 3c e2 31 85 bc
       -0.00086181983 0.004172316 0.010167784 -0.016259138
000090 4d c3 15 bc b1 bc 5c bc 71 9a 57 bc 2d bd 42 3d
       -0.009140802 -0.013472722 -0.01315938 0.047543693
0000a0 3c 1e ef bb c9 7d 14 3e ef a9 8d bc 8b 8a 7e bc
       -0.0072973054 0.14501108 -0.017292945 -0.015535961
0000b0 23 72 91 bc 0e 90 db 3d 92 45 a0 3c 23 48 32 bb
       -0.01775462 0.107208356 0.019564424 -0.0027203641
0000c0 03 01 88 bc 77 04 0e 3b 36 d9 71 bc 70 e3 ae 3b
       -0.016602045 0.0021670142 -0.01476126 0.0053371713
0000d0 d6 34 04 39 a5 e1 ff 3a e1 aa c0 bb 79 37 fd bb
       0.00012608184 0.0019522203 -0.0058797454 -0.00772756
0000e0 a9 f6 1f 3d b1 28 23 bc f8 89 e7 bc cd 66 a7 3d
       0.039053593 -0.009958432 -0.02826403 0.081739046
0000f0 4c 4d 9d bb 76 be 98 bc e8 2c 82 3a 84 f0 1c 3c
       -0.0048004743 -0.018645506 0.0009931596 0.009578828

conv2d_41/bias f4 [128]
000000 7d 52 ff 3a 2f 97 b3 b9 34 49 96 3b 36 a6 b4 3a
       0.001947954 -0.0003425418 0.004586363 0.0013782445
000010 24 02 d5 3a 7a 86 26 bb 0f 0f 25 bc 5d cf 6c ba
       0.0016251248 -0.0025409744 -0.010074391 -0.0009033585
000020 33 67 92 bb 32 d1 bb bb 5b e3 37 3b e2 f3 54 3b
       -0.0044678687 -0.005731725 0.0028059098 0.0032493998
000030 bd 58 2d bc 36 bb 93 bb 8f ac 7c 3c 5e cf 0a 3b
       -0.010580239 -0.0045084013 0.015422001 0.002118073
000040 af ee 55 3b ce 64 3b bb 89 a9 de 3b da 6a 81 3c
       0.0032643487 -0.002859402 0.0067951125 0.015798021
000050 3a 7b 70 bb a4 d0 7d 3c 82 52 20 ba 9c 4f df 3a
       -0.0036694543 0.015491638 -0.000611581 0.0017037275
000060 d9 1a 01 3a a7 7c 32 bb 2f 98 27 bc 5d 97 52 3b
       0.000492496 -0.0027234943 -0.0102291545 0.0032133677
000070 de ab fc bb 60 94 10 3c 25 d6 32 3c 14 b7 a5 3b
       -0.007710918 0.008824438 0.010915314 0.005057225
000080 e7 b6 1b bc 11 19 dc bb 07 6f 50 3c f3 1f a5 ba
       -0.009504057 -0.0067168553 0.0127217835 -0.0012598023
000090 9b 89 3f bb db 90 42 bb ca c3 8c 3c d1 39 a0 bb
       -0.0029226306 -0.0029688391 0.017183203 -0.0048897048
0000a0 70 e8 03 bb 77 38 dd b9 ee 6c 74 bb af 14 a0 bb
       -0.0020127557 -0.00042194474 -0.0037296372 -0.004885278
0000b0 1c d3 34 3c 87 23 11 3c 51 ae 6a 3c 83 b3 50 3b
       0.0110366605 0.008858568 0.014323787 0.0031845279
0000c0 11 20 aa bb 2e 5c 42 39 d2 12 17 bb 4f a0 6a bb
       -0.005191811 0.00018535621 -0.002305199 -0.0035801118
0000d0 8e 05 a0 3a f4 83 1f 3b bd 09 cf bb 2b aa 4a bb
       0.0012208687 0.0024340125 -0.0063182996 -0.0030924182
0000e0 c1 17 a6 bb 11 df 82 3b df 7d a8 3c 14 ce 27 3a
       -0.0050687497 0.0039938767 0.020567833 0.00064012525
0000f0 8a 7b 01 3c f9 5e 42 3b 28 f3 24 bc 75 ed 0d 3b
       0.007902989 0.002965866 -0.010067739 0.0021656428
000100 26 e8 84 3b d2 c1 b3 ba 44 84 18 bb de df 3f b9
       0.0040559946 -0.0013714379 -0.0023272196 -0.00018298576
000110 ae 96 f3 3b 4e 63 10 bc 0e 01 3c 3b ae 27 d8 ba
       0.007433734 -0.008812739 0.0028687152 -0.0016491318
000120 12 af 61 3c 23 19 2e bc 86 b6 d5 3a 67 e9 b0 3b
       0.01377465 -0.01062611 0.0016305007 0.0053989175
000130 b7 dd 19 bb 0c a6 b9 bb e8 6b 1f 3a 04 30 97 3c
       -0.00234781 -0.0056655463 0.0006081448 0.018455513
000140 02 f4 53 3c ae 15 7e 3b f3 42 ef 3b 56 b0 0a 3c
       0.012936594 0.0038770246 0.007301682 0.008464893
000150 81 bd d0 ba f3 34 c6 3a 63 62 a3 bb 88 10 ab ba
       -0.0015925617 0.0015121981 -0.004986094 -0.0013051191
000160 f1 e2 15 bb fa 90 1b 3c 0b 23 22 3b e4 46 24 3b
       -0.0022870863 0.009495014 0.0024740126 0.0025066668
000170 fa 4d 0a 3c 37 60 90 3b 73 6b f6 ba d3 d5 f9 3b
       0.008441443 0.004406001 -0.0018800333 0.007624367
000180 70 51 39 bb 51 c0 67 3c 4a 96 68 3c 31 64 ef bb
       -0.00282773 0.014144973 0.014195988 -0.007305645
000190 c7 59 a4 bb 82 36 91 bb 6b dc 28 bc 88 c5 0b bb
       -0.005015585 -0.0044315467 -0.010306458 -0.0021327455
0001a0 42 31 3a ba a0 91 69 b8 3c 03 a7 ba 1d a9 8c b9
       -0.0007102677 -5.5687153e-05 -0.0012742053 -0.0002682888
0001b0 ea 54 12 3b 40 98 ce 3b 4d 85 02 ba 6c 43 f2 3c
       0.0022328445 0.0063047707 -0.000497897 0.029573165
0001c0 b7 82 6b bc 6a f6 e7 3a 8c d8 19 3b bc 6e b8 3b
       -0.014374427 0.0017697338 0.002347502 0.005628435
0001d0 60 35 92 3b 00 19 89 36 99 ec 61 3c 01 16 08 bc
       0.004461929 4.0858286e-06 0.013789319 -0.008306027
0001e0 00 ae 18 bb 26 a6 fa ba 48 04 80 bb 53 7d 25 3c
       -0.0023297071 -0.0019123002 -0.0039067604 0.01010068
0001f0 20 c7 7a 3c 0c 33 3d 3c 1a 8f 79 bb d6 bd cf ba
       0.015306264 0.011547815 -0.003807968 -0.0015849422

conv2d_40/bias f4 [64]
000000 5e c3 bd bb 01 4d e0 3b 11 b1 eb 39 8c a0 01 3c
       -0.005791112 0.006845117 0.00044954618 0.0079118125
000010 cc 2c 43 3b 50 1b 1a 3b 85 16 9e 3a 3f 1e 9f bb
       0.002978134 0.0023514815 0.0012061155 -0.0048559005
000020 07 d3 a1 bb 67 7c 4f 3b 2b 29 c6 3a 38 9c dd 3b
       -0.0049384865 0.0031659843 0.001511847 0.0067630075
000030 88 12 18 3a fe 8d 14 bb 91 b6 79 bb 97 66 07 bc
       0.0005801101 -0.0022667642 -0.0038103203 -0.008264205
000040 a9 7b ec 3a dc 2c b3 bb 71 47 63 3a 08 f6 e6 ba
       0.0018042225 -0.005467994 0.00086700084 -0.001762093
000050 17 94 97 3a 8c 2a a3 3b 2e 24 06 3a 2e 7c 13 b8
       0.001156452 0.004979437 0.00051170855 -3.5163182e-05
000060 42 04 fa 3b 4a 0b 65 bb 1a 17 31 3b 10 9d 83 3a
       0.007629902 -0.0034949356 0.0027021826 0.0010041315
000070 18 b9 09 3b 02 ed 0c 3b 7c 4a fe 3a e6 52 a4 3a
       0.0021014865 0.0021503572 0.001940086 0.0012536913
000080 52 f4 82 bb 2e 26 10 3c 69 45 24 bc 3e 98 2c 3b
       -0.0039964104 0.008798165 -0.010026314 0.002633586
000090 58 45 aa 3b 44 63 29 3c f8 d0 80 3b 91 1e eb 3a
       0.0051962547 0.010338608 0.003931161 0.0017938187
0000a0 10 fc 8a 39 8d fb 8f bc 3d f9 17 b7 5f 59 3e 3a
       0.00026509212 -0.017576003 -9.058332e-06 0.0007261242
0000b0 b9 3b 29 3b 7d 2d a5 bc 7a fd 24 3a 40 d2 da 3a
       0.002582295 -0.020163292 0.00062938745 0.001669474
0000c0 0d 0a 28 3b 21 d5 1f bb 75 b9 49 3c 89 42 b4 3b
       0.0025640756 -0.002438851 0.012312283 0.0055010957
0000d0 8d 2d 77 bc ee 40 d0 3a 5c 50 dc bc 83 5a df bb
       -0.015086544 0.0015888491 -0.026893787 -0.0068162098
0000e0 87 c2 ce 37 1a 39 12 bb d1 a9 10 3b b0 b5 07 3c
       2.4647698e-05 -0.0022311867 0.0022073875 0.008283064
0000f0 56 3e ca 3b 6e 44 fe 3b e4 15 2e 3c 39 01 b6 38
       0.006171982 0.0077596223 0.010625336 8.678664e-05

conv2d_39/bias f4 [32]
000000 fd 89 ce ba 9b e5 eb ba e7 71 ea 3b 0e eb 16 bc
       -0.0015757676 -0.0017997505 0.0071546915 -0.009211315
000010 35 e2 38 bb ee a2 38 3b 5d 13 dd bb e0 c5 11 ba
       -0.0028211002 0.0028173286 -0.006746693 -0.00055607967
000020 01 c6 7c 3a 3e 73 30 3b 35 ec 12 bb ef 30 b4 bb
       0.0009642542 0.0026924158 -0.0022418622 -0.0054989974
000030 ce ce b9 bb ee 17 9a 39 9d 5c bf ba d7 09 9c 39
       -0.005670405 0.00029390998 -0.0014599744 0.0002976197
000040 08 d9 38 bc d8 f0 84 bb 79 2e 81 b8 bc c5 a9 ba
       -0.011282213 -0.004057031 -6.1598555e-05 -0.0012952606
000050 8a 5c 00 bc 24 84 98 bb 91 be e9 ba e6 83 cf 3b
       -0.007834563 -0.0046544243 -0.0017833282 0.006332862
000060 79 bc fc ba 8f 9a e8 b9 75 03 da 3b 29 14 3e ba
       -0.0019282243 -0.00044365643 0.006653244 -0.0007250929
000070 77 91 96 bc fe 2c 2e bc 38 60 94 b9 d3 0c 51 39
       -0.01837991 -0.010630844 -0.00028300448 0.0001993657

conv2d_38/bias f4 [16]
000000 bf f3 4b 3b d0 2c 1d ba ed 4e 8a b7 fd 20 0b b8
       0.0031120626 -0.0005995752 -1.6487635e-05 -3.3170905e-05
000010 01 c9 f0 b8 9b 13 2b b9 40 fe 9e 3b 30 36 0a ba
       -0.00011481532 -0.00016315134 0.0048520863 -0.0005272357
000020 e1 e7 eb b9 2e 49 5f b6 40 c0 c8 b9 13 5c 73 b8
       -0.00044995456 -3.3272186e-06 -0.0003829021 -5.8021466e-05
000030 83 66 17 ba 66 39 a4 bb af 46 50 38 4d 4a d6 b9
       -0.00057754683 -0.0050117252 4.9656894e-05 -0.0004087262

sequential_11/dense_27/MatMul f4 [64, 512]
000000 c2 3e a1 bd 57 d7 09 bd a9 bc 45 3b 75 a7 ab 3d
       -0.07873298 -0.03365263 0.0030172265 0.08381549
000010 76 64 5b bd e6 b7 a8 bd 8b dc 1c bd ca 79 a6 3d
       -0.053562604 -0.08238201 -0.038296264 0.08128698
000020 86 bf c3 3d 16 42 8b bc 50 3b 59 bd 72 0a c9 bd
       0.095580146 -0.016999286 -0.05303508 -0.098164454
000030 83 1a 94 3c a6 0c cd 3d e4 74 2f 3d df 5f f4 bc
       0.018079048 0.10012178 0.042836085 -0.029830871
000040 ed f6 f9 bc a7 b1 ad 3d ba 4f d6 bc 6b ae 52 bd
       -0.030513251 0.0848115 -0.026161063 -0.05143587
000050 78 44 c8 bd e2 e4 f0 3c df ed ad bd a1 bc 01 bd
       -0.097786844 0.029406015 -0.08492636 -0.03167403
000060 fc 36 0f 3d a8 e1 40 bc b3 5e 0a 3c b3 d0 78 bd
       0.034964547 -0.011772551 0.00844543 -0.060745906
000070 d6 e9 b3 3d 67 6a cf bc bb be 45 3d 31 2b 43 3c
       0.08784835 -0.025319291 0.048277598 0.011912153
000080 a7 5a 40 3d a9 4f ad 3d 85 18 7c 3d bc d6 a2 bd
       0.046961453 0.084624596 0.06154682 -0.079511136
000090 e3 dc cf bd 65 87 0e bd 2b b4 6f 3c 44 7b 53 3d
       -0.10149553 -0.03479709 0.014630358 0.051631227
0000a0 4f 2b 58 3d 57 9a d9 3c 22 a3 63 bd 82 27 bd 3c
       0.052775677 0.026562853 -0.055575497 0.023090128
0000b0 4c 55 bf bc 05 35 89 bd 3e bc 85 bd 42 96 d5 3d
       -0.023356102 -0.06699566 -0.06530045 0.1042905
0000c0 7c f2 1e 3d a8 7a c6 bd 11 2a 9c 3c 54 76 f2 3b
       0.03880547 -0.096913636 0.019063028 0.0073993597
0000d0 ca 6b ac 3d d1 db e0 3d f4 65 3b bd eb fc 05 bd
       0.08418997 0.10979427 -0.045751527 -0.032711904
0000e0 18 5a a5 3d 64 7f 77 bc 5a 37 7c bd 57 2b f6 bc
       0.08073825 -0.015106056 -0.061576225 -0.030049963
0000f0 9a f4 90 3d 0e a5 02 bd ac 17 70 3d f8 21 2c bc
       0.07077904 -0.03189569 0.058616325 -0.010506146
000100 1b 90 a4 bd 86 92 c4 3d bc ea 1a bd 04 0c 6f bc
       -0.080352984 0.0959826 -0.037821516 -0.014590267
000110 b9 04 97 bd 5b d2 e0 bc eb 6a 38 bd 56 f2 5d bd
       -0.07373948 -0.027444055 -0.04502384 -0.054186188
000120 61 53 2d 3d 83 ac 83 3a c0 f8 39 3d 7e c7 c5 bd
       0.042315844 0.0010045919 0.045403242 -0.09657191
000130 c9 7b c7 3d ff 58 c0 3c db 53 4b bd 6f a6 89 bd
       0.09740407 0.023479937 -0.049640518 -0.06721198
000140 5c d9 c0 bb 48 cf aa ba 5c b3 ac bc 46 d4 25 3d
       -0.0058852863 -0.0013031745 -0.021081619 0.040485643
000150 28 4d e6 bc d4 13 4f bd c0 6d c5 bd 86 c9 4f bd
       -0.028112963 -0.05055602 -0.09640074 -0.050729297
000160 bc 67 bf 3d 54 9f 66 3d cf 99 93 bd 50 9c 47 bd
       0.09345958 0.05630429 -0.07207071 -0.048733056
000170 c5 b6 e9 3c 79 ad cf bd fa 5d 6b 3c ff 7d 05 3d
       0.028529534 -0.10140509 0.0143656675 0.032590862
000180 0d cd 81 bd f9 21 08 3d 0a 17 89 bb d3 72 69 3d
       -0.063379385 0.033235524 -0.0041836547 0.05699427
000190 75 d0 23 bd 75 9f e0 3c 37 95 6e bd 2d ec bd bd
       -0.039993722 0.027419785 -0.05824777 -0.092735626
0001a0 88 0e 8c 3d 35 81 b2 3d 87 9d fb 3c e4 0d 0f bd
       0.06838709 0.087160505 0.030714763 -0.034925357
0001b0 c5 d4 ba 3d 54 82 60 bd 12 47 c7 3d 08 c4 1b bd
       0.09122614 -0.05481179 0.097303525 -0.038028747
0001c0 0f 92 36 bd 13 7b a1 bd 32 86 30 bd fa ee 95 3c
       -0.044572886 -0.07884803 -0.04309673 0.01830243
0001d0 20 59 cc bd 40 32 11 3d 35 06 a4 bd ff 7f 1e bc
       -0.09977937 0.035448313 -0.080089964 -0.009674071
0001e0 1a 94 ba bc 5d 7d 07 bd d7 42 17 bd 91 ca b7 bd
       -0.022775698 -0.03307854 -0.036928978 -0.08974183
0001f0 1d 27 36 3d 31 d9 8a 3d 11 57 c8 3c 8e 0e 72 bd
       0.044470895 0.06779707 0.024455579 -0.05909591
000200 8c 29 92 3d 8d 94 ed 3c 3f 32 77 3c 3e af 97 3d
       0.07136831 0.029001499 0.015087663 0.07406472
000210 ee ee 35 3d 87 41 dd bc 14 dc 47 bd 8b d6 09 3d
       0.044417314 -0.027008785 -0.048793867 0.03365187
000220 08 88 8d bc 03 b4 f4 bc f2 e9 80 3d 0d e2 fd 3b
       -0.017276779 -0.029870993 0.062946215 0.0077478946
000230 6a 6d a0 3d 5d 84 5b bd 6d ee 74 3d 9a 00 ea bb
       0.07833369 -0.05359303 0.059797693 -0.007141185
000240 ce e7 97 bd 22 42 6c 3d 57 45 f4 3c af 5f 8b bc
       -0.0741726 0.057680257 0.02981822 -0.017013399
000250 65 e9 b8 3d b4 44 42 3d 72 b1 06 3b de a8 3e 3d
       0.090288915 0.0474288 0.0020552543 0.046547763
000260 c2 58 f9 bc f0 c9 58 3c 43 2b a2 3d 19 79 9e bd
       -0.03043783 0.013231739 0.07918408 -0.07737941
000270 b4 23 cd bc cf 99 02 3d 59 24 b8 3c a6 cc 4c 3d
       -0.025041439 0.031884965 0.02247827 0.049999855
000280 e3 c5 c5 bd de 04 35 3d 94 9a 3b bd a8 7f 38 3d
       -0.096568845 0.044194095 -0.045801714 0.045043617
000290 31 96 9a 3d cb 74 a0 bd 61 a0 f1 bc d8 e2 99 ba
       0.07548178 -0.078347765 -0.02949542 -0.0011740578
0002a0 92 f0 47 3d d9 8a 87 bd 96 f1 89 bc 55 0a 31 bd
       0.04881341 -0.0661828 -0.01683883 -0.043222744
0002b0 bb 47 94 bd 11 08 7c 3c 7d 37 96 3d 4f fd af 3c
       -0.07240244 0.015382783 0.07334802 0.021483092
0002c0 7c 17 e9 bc 0f 08 1f bb d8 67 b3 bc 3e 30 8a bd
       -0.028453581 -0.0024266278 -0.021900102 -0.06747483
0002d0 32 d8 9b bd 99 2d e7 bb 26 d9 6f bd 0b 00 9d bd
       -0.07609595 -0.007054996 -0.0585567 -0.07666024
0002e0 a0 74 b5 bb 46 af 9f bb b1 a5 08 bc 1a 4e e9 3b
       -0.0055375844 -0.004873189 -0.008340285 0.007119906
0002f0 2b da a8 3c f8 26 4e 3d e7 7e a8 3d fc d9 ac 3b
       0.020611843 0.050330132 0.0822733 0.005275009
000300 42 25 e9 bc 60 41 ac 3c 3d 36 77 bd 6c a8 70 3d
       -0.028460149 0.021027267 -0.06035446 0.05875437
000310 d0 54 d4 3c d2 2c 8d 3d 90 39 e7 bc b3 41 1c 3d
       0.025919348 0.068933144 -0.02822569 0.038148593
000320 2d de 9b 3d 3f 2b 5b bd f9 61 0a bb be d4 ce bd
       0.07610736 -0.05350804 -0.0021115525 -0.10099171
000330 30 58 fe 3c 02 8c b0 3d 47 5c a9 bd e2 88 62 3d
       0.03104791 0.08620454 -0.08269554 0.055306323
000340 04 10 19 3d 4d 65 c1 bd 3e 08 8e 3b 55 41 0b bd
       0.03736879 -0.0944315 0.0043344786 -0.033997852
000350 61 7e 02 3d b3 3a ca bc f1 90 95 3d 91 50 c5 bd
       0.031858806 -0.024686193 0.07303036 -0.096345074
000360 98 9f e1 bc 8e 66 aa bd 33 9a c4 bd e5 6a b0 bb
       -0.02754192 -0.08320342 -0.09599724 -0.0053838366
000370 a9 cf f3 bc ba f8 d4 bd 88 b4 3e 3c 2d 2f ed bc
       -0.029762106 -0.10399003 0.011639722 -0.02895316
000380 ab 45 5d 3b 97 23 c4 3d 74 5b 50 3d 9e ca 99 bd
       0.003376345 0.09577101 0.050868466 -0.07509349
000390 96 75 82 3d 1e 40 cd bc 8c 22 36 bd 45 07 d4 3c
       0.06370084 -0.025054988 -0.04446654 0.025882373
0003a0 70 52 89 bb 4b 4f be 3d 1e ed 26 3c 08 62 6f 3b
       -0.0041907355 0.09292468 0.010188369 0.0036526937
0003b0 d0 34 e2 bc d0 0d ba bc 8c de c6 3c 36 a5 b8 bd
       -0.027613074 -0.022711664 0.02427604 -0.090158865
0003c0 f6 80 ad 3d 51 19 e9 3c 51 f3 96 3c 5e f2 c7 b9
       0.08471863 0.028454455 0.01842657 -0.00038136815
0003d0 1a 22 a2 bd 21 31 b2 bd 12 f0 83 bd a0 0c 4e bd
       -0.079166606 -0.08700777 -0.06442274 -0.05030501
0003e0 31 7f 3f 3d 13 fb 93 3d 58 f1 87 3d 30 bc 2e 3d
       0.04675216 0.07225623 0.066378295 0.04265994
0003f0 d5 d0 f8 3b b0 7c 64 bd 36 d6 36 bc d8 dd bd bd
       0.007593254 -0.055782974 -0.01115947 -0.09270829

sequential_11/dense_28/MatMul f4 [32, 64]
000000 de c1 04 3d 61 ca 51 3e 93 50 b5 3d 4b ab 09 3e
       0.03241145 0.20487358 0.08853259 0.1344425
000010 f4 d6 d1 bd 0d 37 1a be 90 91 9d bd aa 9c 2c 3e
       -0.10246077 -0.15060063 -0.076937795 0.16856638
000020 68 3a 66 3e 92 5d de 3c 98 63 80 bd 64 e5 18 3c
       0.22483218 0.027144227 -0.06268996 0.009332035
000030 1a c3 2f 3e b2 48 2c be 87 f8 2a 3e de 96 45 be
       0.17164269 -0.16824606 0.16696368 -0.19295833
000040 8a ad 76 3e 10 03 91 3d 6b c3 1b 3a bf 5c 7e be
       0.24089637 0.07080662 0.00059419003 -0.24840067
000050 76 aa cb 3d 29 f2 69 bd ce 61 51 3d 50 88 04 be
       0.09944622 -0.057115708 0.051118664 -0.12942624
000060 ab 18 bf 3d 4b 4f 90 bd 5f 43 1e 3d bb 5e c1 bd
       0.09330877 -0.07046374 0.03863847 -0.094418965
000070 af c9 e9 bd 11 6e 41 3e cb a3 48 bd ec d0 2c 3c
       -0.11415421 0.18889643 -0.04898433 0.010547858
000080 94 f3 b9 bd 31 aa 6d be a8 17 68 3e d2 f4 b4 3d
       -0.09079662 -0.23209454 0.22665274 0.08835758
000090 86 2a 3f 3e c2 98 2f 3e b2 91 11 3e 65 4a f4 bd
       0.18668565 0.17148116 0.14215735 -0.11928252
0000a0 94 89 67 3e 1c 85 43 3e 1a 7d 92 3d 6b 53 19 bd
       0.22611076 0.19093746 0.071527675 -0.03743307
0000b0 0e b1 e6 bd ce e1 fd bd 39 ef 1f 3c 6e 2d 01 3e
       -0.11264239 -0.123965845 0.009761625 0.12614986
0000c0 56 5d af 3d 52 38 56 3e ac a7 e9 3d 2e c5 4d be
       0.08562724 0.20919922 0.11408934 -0.2009475
0000d0 0d 84 96 3d 99 5a 08 be 09 1e d8 3c e5 0a 82 3d
       0.073494054 -0.1331581 0.02638151 0.06349734
0000e0 ee bb 32 be a9 28 49 3e 75 87 0c 3d e0 ee d2 3c
       -0.17454502 0.19644417 0.03430887 0.02574867
0000f0 a4 6b 56 be fb 20 6a 3d de c5 55 be 05 19 ca bd
       -0.20939499 0.05716036 -0.20876262 -0.09868053
000100 d1 64 86 3c 09 08 68 3e 66 66 22 3e 30 6c 68 3e
       0.016405495 0.22659315 0.15859374 0.2269752
000110 df 94 b3 3c 12 37 39 3e 97 ca 1e be 13 1a 26 3e
       0.021921573 0.18087414 -0.1550697 0.16220884
000120 4a 93 98 3e 01 91 22 be 24 79 19 be 4f 32 0b 3e
       0.29799873 -0.15875627 -0.14987618 0.1359341
000130 1e d0 69 3e 5b 28 bf 3d 5a 56 52 3e 8f 7b 41 be
       0.22833297 0.09333869 0.20540753 -0.1889479
000140 e8 b2 e3 3b 3f 92 64 3e c6 9d 18 3e 9a 55 4a be
       0.0069488175 0.22321413 0.14903936 -0.19759217
000150 fb 28 9b bd 90 e3 b5 bd 4d 7f 37 bc 24 88 14 3e
       -0.07576176 -0.08881295 -0.011199784 0.14505059
000160 f3 10 58 3e b9 2a 0b 3e 89 e9 78 be 2b a3 b5 3a
       0.21100216 0.13590516 -0.24307837 0.0013857832
000170 06 6d 1c be f9 50 41 3e 6a c6 7f be ce 98 23 be
       -0.15275964 0.18878545 -0.24978033 -0.15976259
000180 1e d5 d6 3c 6e 24 a9 3c a2 31 25 be 54 d9 c4 bc
       0.02622467 0.020647254 -0.16132215 -0.024029411
000190 9a ce 6b 3d 2a 4a c0 ba 08 39 3f 3e 71 6f 10 bd
       0.057570077 -0.001467054 0.186741 -0.03526253
0001a0 24 0d 6a be 9c 1a 5c bd dd bd 2a be bb 57 f1 3d
       -0.22856575 -0.053736314 -0.1667399 0.117843114
0001b0 cf b8 fb bd 93 b0 bf bc 42 63 33 3e bd 09 2c 3e
       -0.12291109 -0.023399627 0.17518333 0.1680059
0001c0 45 1c ee 3d 81 95 a0 3c d9 e2 68 ba 69 cc 3e 3d
       0.11626486 0.019602539 -0.00088839006 0.04658166
0001d0 81 81 16 3d 3e c7 02 3e b3 af a0 3d c7 71 a1 3d
       0.0367446 0.12771317 0.07846012 0.078830294
0001e0 f1 f7 ca 3d 8f a2 54 be 46 5a 74 bc a4 32 38 be
       0.09910572 -0.20765136 -0.014914101 -0.17988068
0001f0 69 5a 62 be 07 b8 34 3e 66 cc 7e 3d aa 78 6c 3e
       -0.22104801 0.17648326 0.06220665 0.23092905
000200 d7 f3 5a be c3 47 ee 3d 97 77 1d 3e 07 ee db 3c
       -0.2138208 0.11634781 0.15377651 0.026846899
000210 9e 6c 2d 3d 07 a4 5b 3e 13 05 0d 3d a8 c2 80 3e
       0.042339914 0.2144929 0.034428667 0.2514851
000220 56 70 10 3e b9 b3 3d be ff 58 61 3e 21 37 28 3e
       0.14105353 -0.1852559 0.22006606 0.1642728
000230 79 43 94 3d 4d 80 cd 3d 00 f6 90 bd 5f 82 1a bd
       0.07239432 0.10034237 -0.07078171 -0.037721988
000240 1f 2d 91 3e 9d bf 57 be 04 a2 0c 3e ff a7 1d 3e
       0.28354737 -0.21069188 0.13733679 0.15396117
000250 d1 dd 23 bd a9 8f 82 3e 01 81 05 3e fb 04 4d be
       -0.040006462 0.2550023 0.13037492 -0.20021431
000260 db bd 01 be 0b b5 25 3e 24 90 8d bd 7d a9 1e 3e
       -0.1267008 0.16182344 -0.06912258 0.15494342
000270 7f 03 ea 3d 47 8a 8c bd 33 72 0c 3d eb ea 14 be
       0.11426448 -0.06862312 0.034288596 -0.14542739
000280 e6 c6 b0 3c c2 0d 6f 3e b8 0c 88 bd 86 f0 2d bd
       0.021579217 0.23345092 -0.06643051 -0.04246571
000290 d9 91 3b 3e b0 05 4a 3d ee 54 da 3d 5e 1e d1 3d
       0.18317355 0.04932183 0.1066073 0.1021087
0002a0 08 c0 30 3c c9 2d 88 3e 04 6b 61 be d6 00 b0 3d
       0.010787971 0.2659743 -0.2201348 0.085939094
0002b0 1e 1e 05 3d c9 9f 1f 3e 92 df 86 3e 04 97 dd 3a
       0.032499425 0.15588297 0.26342446 0.0016905968
0002c0 db b0 dc 3d 85 d3 48 3e c6 29 d7 3d c0 6f 1e be
       0.1077592 0.19611938 0.105060145 -0.15472317
0002d0 10 26 62 bd dd 77 4b be e1 17 a6 bd 95 eb ad 3d
       -0.05521208 -0.19869943 -0.08110023 0.08492199
0002e0 4d bd 98 3c 30 90 05 3e 32 49 66 bd 87 16 46 be
       0.018644953 0.13043284 -0.05622215 -0.19344531
0002f0 f2 14 2a 3d 5d 89 c0 bd aa c1 4a be 26 4e d7 3c
       0.04152388 -0.094012 -0.1980044 0.026282381
000300 a3 e8 4e be 23 13 32 be d5 f9 c4 3d f2 e3 0d 3d
       -0.20205931 -0.17390113 0.09617964 0.034641214
000310 06 ab e6 3d 9a ca 0b 36 e3 6a ba 3b 10 19 64 3e
       0.11263089 2.0830544e-06 0.0056890114 0.22275186
000320 41 a5 20 3e fd 61 11 be 37 0e d1 bd a5 e5 52 be
       0.1568804 -0.14197536 -0.102077894 -0.20595415
000330 61 d9 f4 bd ad 60 3d 3e ce f6 5b be 8c ba 84 bc
       -0.11955524 0.1849391 -0.21480867 -0.016202234
000340 77 ca 87 bb 58 04 19 be b5 79 ca bd 69 39 03 bd
       -0.0041440087 -0.14943063 -0.09886495 -0.032037172
000350 8f 9d 64 3e cc 96 d6 3d d4 d3 6a be 7e 6c 51 3e
       0.22325729 0.10477981 -0.22932369 0.20451543
000360 af 12 ff 3d d8 f3 e5 3b 24 a7 15 3e 3b d8 0f 3d
       0.124547355 0.007017594 0.1461454 0.035118323
000370 3b 89 ec 3d b8 4d 54 3d b0 c9 d1 bd e8 42 f4 3d
       0.11549612 0.05183193 -0.10243547 0.11926824
000380 2b bb f7 bd e4 75 c3 bd 7e 9a 75 3d 0d 48 dd bd
       -0.12096246 -0.0954397 0.05996179 -0.10804758
000390 fc 1d 73 bd 6e cf b5 bd c1 2b 13 3e 96 a3 8f be
       -0.059354767 -0.08877455 0.1437216 -0.28054494
0003a0 65 a5 4d 3e 64 fc 00 be 83 7f 12 3d 26 5d 67 be
       0.20082624 -0.1259628 0.035766136 -0.22594127
0003b0 d1 ca 50 be 80 ac 9b bd be 58 e2 bc 53 fe 16 be
       -0.20389868 -0.07601261 -0.027630206 -0.14745454
0003c0 b2 fc 21 3e f6 1c 5b 3a b3 52 70 be b5 45 09 be
       0.15819052 0.00083585025 -0.23469047 -0.13405497
0003d0 75 57 ef 3d 49 a0 2b 3e eb 02 cc 3d 79 52 37 3e
       0.11686603 0.16760363 0.09961494 0.17902555
0003e0 66 42 fc bb d2 fa 6a be 14 9c 12 3d 3e 13 80 be
       -0.007698345 -0.22947243 0.03579338 -0.2501468
0003f0 a5 b6 21 be 25 d1 82 bd 94 53 73 be 5b cd 2e 3e
       -0.1579233 -0.063875474 -0.23762351 0.17070524

sequential_11/dense_29/MatMul f4 [7, 32]
000000 3b 6f 14 be a5 44 fe 3d 96 ed b3 3e 24 7a 44 be
       -0.14495556 0.12415437 0.351422 -0.19187218
000010 da 68 3b be 74 fb 72 3d c4 a4 9c 3e 80 d2 f2 3d
       -0.18301716 0.059321836 0.30594456 0.11856556
000020 d5 6c 8b 3e cf 90 cd 3d 1e e2 ad bd 0e 5f f8 be
       0.2723147 0.10037386 -0.08490394 -0.4851002
000030 7a 25 40 be 4f 58 75 bc a7 d6 4f 3e 5c f2 61 3e
       -0.18764296 -0.014974668 0.20296727 0.22065109
000040 40 63 52 be 0d 73 3e 3d 1b 67 40 3e 05 41 54 3e
       -0.20545673 0.04649644 0.18789332 0.20727928
000050 54 74 11 3e ec 6f 95 be a1 2e 4c be 33 ef 9b 3e
       0.14204532 -0.29186952 -0.19939663 0.30455932
000060 8e f5 3f 3e 35 5b 25 bd 8f 6c 93 3e 62 d1 52 3e
       0.18746015 -0.040370185 0.2879376 0.20587686
000070 89 08 a6 bd ee e0 2f be 97 52 e2 3d 92 b8 e1 3d
       -0.08107097 -0.17175648 0.11050909 0.11021532
000080 95 b4 1e 3e fe ba b2 3d 98 ac 33 3e 91 84 25 3e
       0.15498574 0.08727072 0.17546308 0.16163851
000090 52 12 c7 be 30 0f b7 bd ff da 13 bd 86 7b 70 be
       -0.38881165 -0.08938444 -0.036097523 -0.2348462
0000a0 fd f5 4f be 26 bc be 3e 2b 6f 85 3e 67 6f 12 3e
       -0.20308681 0.3725292 0.26061377 0.14300309
0000b0 c5 15 9c 3d 83 b8 a7 3e b8 36 3c 3e 24 43 0e 3e
       0.0762134 0.3275796 0.18380249 0.138928
0000c0 a6 f0 d3 be 61 63 d1 3e 5a 74 0c 3e 06 7f f1 3d
       -0.41394538 0.40896133 0.1371626 0.11791806
0000d0 f5 03 70 be 97 85 8f 3e 83 5a a7 3e ca 86 a0 be
       -0.2343901 0.28031608 0.32686242 -0.31352836
0000e0 70 33 1a bd a6 8c 35 be bd d2 6d 3e 91 55 3f be
       -0.03764671 -0.17729434 0.23224922 -0.18684985
0000f0 46 18 0c be aa 23 5f be ce e7 aa be 71 04 ec bc
       -0.13681135 -0.21790949 -0.33379978 -0.028810712
000100 6e f0 6c be b9 e9 0d 3d 4d df 03 3d f3 0d 83 be
       -0.23138592 0.034646723 0.032195378 -0.2559658
000110 73 df 92 3e 11 93 a1 3e 14 b2 e0 bd 63 71 3f 3d
       0.28686103 0.31557515 -0.10971466 0.046738993
000120 d8 c9 0e 3e 51 2f 1c 3c 14 bb be be 01 59 94 3e
       0.13944185 0.0095327655 -0.37252104 0.28974155
000130 45 34 55 bd 86 fa 16 be d1 d0 64 bd 95 f0 9d be
       -0.0520518 -0.14744005 -0.055863205 -0.30847612
000140 bc 9d 44 be 61 23 ce 3e e5 8b c3 3e 97 55 ea bd
       -0.19200796 0.40261367 0.3819267 -0.11442106
000150 5b eb a7 be c2 2c 8b be 05 8e 02 be da 81 8c 3e
       -0.3279675 -0.27182585 -0.12749489 0.2744282
000160 e4 11 a6 3e 86 89 a3 be ed 1c ce 3e 36 9b 75 be
       0.32435524 -0.3194086 0.40256444 -0.2398499
000170 85 65 88 3e c8 4d 3c be 98 23 bc 3e c8 8b 17 be
       0.26639953 -0.18389046 0.36745906 -0.14799416
000180 85 ad d0 bd 5f a2 b7 bd 47 ab c2 be 80 2b 8d bd
       -0.10189346 -0.08966517 -0.380213 -0.068930626
000190 bb 1f 71 3e 4d 81 32 3c 85 c1 4c be 5c 6c cb 3e
       0.2354726 0.0108950855 -0.19995697 0.3973111
0001a0 7c a8 5f bd 66 1a 05 be d7 5b c6 3e 17 22 8a 3d
       -0.05460404 -0.12998351 0.38741943 0.06744783
0001b0 c1 70 36 3e 58 31 59 be 32 d4 9b bd b1 64 9c be
       0.1781645 -0.2121023 -0.076088324 -0.3054557
0001c0 a4 44 a4 3e a2 ab 86 3e 3b 6b f4 bd 3a 05 b5 3e
       0.3208362 0.2630282 -0.11934515 0.3535555
0001d0 ea fa 3f be ab c4 98 3d 6f 91 95 be 31 6e 13 3e
       -0.1874806 0.074593864 -0.2921252 0.14397503
0001e0 d6 d6 8f 3e e1 b1 60 3d db c6 3d be dc 9e b6 3e
       0.28093594 0.05485714 -0.18532889 0.35668075
0001f0 31 c3 37 be 55 d0 19 be 77 d0 6c be 2b 46 7f 3e
       -0.17945553 -0.15020879 -0.23126398 0.2492911
000200 3c 90 27 3c fa 3c c2 3d 2b 55 82 bd 4c 68 d4 3d
       0.010227259 0.094842866 -0.06363901 0.103714556
000210 4b ad 4f 3e 16 f2 17 3e fa 9e 57 3e 75 e9 97 be
       0.2028095 0.14838442 0.21056738 -0.296703
000220 b2 7d 5e 3e de 93 9d be fb 50 5c bd 51 cd 41 3e
       0.21727636 -0.30776876 -0.053788166 0.18925978
000230 e0 44 c1 3e 85 b1 c2 3d c6 fb 40 be 19 23 b0 3e
       0.3774786 0.095065154 -0.18846044 0.34401777
000240 3e f5 d6 3e 4c c8 6a bc bb 2f ba 3e 81 8c 18 3e
       0.4198398 -0.014329981 0.3636454 0.14897348
000250 87 63 36 3e 7e a8 7e 3e cd 03 90 be 7c 83 57 3e
       0.17811404 0.24868962 -0.281279 0.21046251
000260 c5 9a 98 be bf 9f 44 3e 3d 69 e1 be 41 c7 43 bd
       -0.2980558 0.19201563 -0.44025603 -0.047797445
000270 e0 dc d4 be a6 fd 82 3e 76 13 84 be 60 9d 2e be
       -0.41574764 0.25584143 -0.25796098 -0.17052221
000280 a4 57 76 3e e8 f6 b0 3e 86 16 d2 be 49 89 ab be
       0.2405687 0.34563375 -0.4103281 -0.33503178
000290 16 71 96 3d d2 59 26 3c ce 43 d5 bd 03 2f e6 bd
       0.07345788 0.010153251 -0.10413323 -0.112394355
0002a0 40 b1 10 be ad ad c4 3e cd 0a 8d be 01 fc b2 bc
       -0.14130116 0.38413754 -0.27547303 -0.02184868
0002b0 49 8d a3 be f7 62 bd be 9f 90 7c bd a3 d3 4b be
       -0.3194373 -0.36989567 -0.06166136 -0.19904952
0002c0 03 8b 2d be 7e 5d 70 bd db 76 08 bf af aa 0b be
       -0.1694756 -0.05868291 -0.5330636 -0.1363933
0002d0 31 1f cd 3e b1 d9 c6 be 00 79 0e 3d a7 ee 98 bd
       0.4006286 -0.3883796 0.034783363 -0.07467394
0002e0 22 f6 70 bd d0 9a c7 bc 66 27 5b be 87 03 06 3f
       -0.05882848 -0.024365813 -0.21401748 0.5234913
0002f0 aa 45 c4 3e 06 ec 4c bb a2 6c 64 3d e5 12 55 be
       0.383344 -0.003126861 0.055767663 -0.20807989
000300 53 59 11 be d0 24 a3 be 36 5a 23 be 1f ab 8a bc
       -0.1419423 -0.31864023 -0.15952381 -0.0169273
000310 7d 30 1a 3e e8 ec 5a 3d 5d 6c cf bc 97 89 51 3e
       0.1505756 0.053448588 -0.025320226 0.20462643
000320 db 9e 95 3e f9 6c 0a 3e f3 1a 7c 3e 8f e9 99 be
       0.2922276 0.13518132 0.24619655 -0.30061004
000330 1f cc a6 be e3 71 98 be 68 06 f7 bd 3b 8a b8 be
       -0.32577607 -0.2977439 -0.12061769 -0.3604296
000340 c9 cd 86 be d3 b2 f4 bc 77 7f 30 3d 2b ce 81 3d
       -0.26328877 -0.029870426 0.04309031 0.063381515
000350 01 a6 55 3d cc aa a6 be 57 7e 9a bc d4 b4 ba 3e
       0.052160267 -0.32552183 -0.018859072 0.36466086
000360 89 c2 aa be 56 33 7e 3e 50 91 56 be ee 48 02 3e
       -0.33351544 0.2482427 -0.2095387 0.12723133
000370 ea 40 85 3e fd 89 84 bd b6 27 49 3e 41 85 a9 be
       0.26026088 -0.06471632 0.19644055 -0.33109477

sequential_11/conv2d_38/Conv2D f4 [16, 3, 3, 3]
000000 0b ba c2 3e 9f 51 da 3d db 46 99 bc 3e 17 04 3f
       0.38032565 0.10660099 -0.018710544 0.51597965
000010 6b 52 9c 3d a6 82 85 be 4a 7a 0f 3f 4d 9f 8d 3d
       0.076329075 -0.2607624 0.56045973 0.0691515
000020 cd 90 b9 3d af 31 e1 3d f0 ce c5 be 4e 60 bc be
       0.09060822 0.109958045 -0.38634443 -0.36792225
000030 be 70 7d 3e 2d 98 60 be 22 66 10 bf 71 02 89 3e
       0.24750039 -0.2193305 -0.5640584 0.26759675
000040 1c 36 90 be 3a c8 54 be c2 35 6f be 98 b7 a5 be
       -0.28166282 -0.20779505 -0.2336035 -0.32366633
000050 8d 13 03 bf 04 38 84 3e 2f bf 4f be 04 ed bc be
       -0.5120171 0.25823987 -0.20287775 -0.3689958
000060 3f d6 a4 3e d6 17 c2 be ce 7d 18 bc 38 2d a0 3d
       0.32194707 -0.3790881 -0.009307338 0.07821125
000070 21 19 ca bc 18 be 87 3d 8c 75 14 3d f1 40 de 3d
       -0.024670186 0.066280544 0.036244914 0.1085223
000080 da c8 47 be 74 62 b3 bc 52 9b ff bd 88 33 f7 3d
       -0.19510213 -0.021897532 -0.12480797 0.12070376
000090 4b a8 2d bb 03 aa 28 be 39 cd ac 3d dc fa b3 3d
       -0.0026498016 -0.16471104 0.084375806 0.08788082
0000a0 dc 9b 0a be 44 72 77 be 4c a9 44 bd d7 06 69 be
       -0.13536018 -0.24164683 -0.048013017 -0.22756515
0000b0 79 b2 16 be c5 29 83 3d 92 2c 21 bd 2f 66 c4 bd
       -0.1471652 0.06404451 -0.039349146 -0.095898025
0000c0 53 67 ee bc 5c 4d 08 3d b5 ff e2 bd 8c 6e a5 3d
       -0.029102003 0.0332769 -0.110839285 0.08077726
0000d0 d0 c0 6a 3b a2 8f 33 be cb 73 3e be d1 d3 20 3e
       0.0035820492 -0.1753526 -0.18598859 0.15705802
0000e0 c8 fe 17 bc 6d 61 7d bc df 66 3d bb 4a 28 a1 3d
       -0.009277053 -0.015465123 -0.0028900427 0.07869013
0000f0 c8 0c 06 3d 39 51 5b bc 98 53 1c bc b8 80 98 3d
       0.032727033 -0.013386064 -0.009541415 0.07446426
000100 17 35 2b 3e 30 0a 32 be aa 5a 37 be 18 f1 ef 3d
       0.16719471 -0.17386699 -0.1790568 0.11715907
000110 ab 37 74 bd 99 ef 2b bd eb 4a 98 bc 13 84 4d be
       -0.0596234 -0.041976545 -0.018590411 -0.20069914
000120 45 d3 a6 bc 28 aa 16 3c 6d f0 86 3d 08 83 07 be
       -0.020364413 0.009195842 0.06588826 -0.13233578
000130 7f 2c 06 be ad 24 be 3d 33 a6 b1 3c b0 5b 9a bc
       -0.13102911 0.09284339 0.021685695 -0.018842548
000140 59 93 ee 3d a6 ca 7a 3d 36 e4 0d bc 50 57 b3 bd
       0.11649198 0.061228417 -0.008660367 -0.08756888
000150 2f c1 25 bc ef b0 1c 3d 26 d3 ab 3c ab d5 06 be
       -0.010116859 0.038254675 0.020974707 -0.13167445
000160 b9 5e b7 bd fe 86 01 be 43 da bf bd c3 d9 c5 bb
       -0.08953614 -0.12649152 -0.09367802 -0.006037922
000170 0b 8c ea bd 23 87 31 3c 14 2a 2a 3e 0d 49 bd bb
       -0.11452492 0.010835442 0.16617614 -0.0057765306
000180 cf 00 bb 3a c2 c0 8d 3d 9f a0 3b be 18 7c 19 be
       0.0014267209 0.06921531 -0.18322991 -0.14988744
000190 75 e2 09 be 03 c4 b8 bd 7b 16 6f 3d 4a 6d c6 bc
       -0.13465293 -0.09021761 0.05837105 -0.024222035
0001a0 9f 2c 33 be 1a 2a 37 be 2b c3 eb 3d 07 15 7e bd
       -0.1749749 -0.17887154 0.11511835 -0.062031772
0001b0 33 21 43 bc dc cf 31 3e 19 d0 bc bd 25 21 55 bc
       -0.011909771 0.17364448 -0.09219379 -0.013008391
0001c0 ac 31 94 3c b6 ef 1a 3e a1 3f b8 3a 92 be 99 bd
       0.018090092 0.15130505 0.0014057049 -0.075070515
0001d0 54 e3 e5 3d 74 cc 16 be 82 10 65 3d d1 e2 cd bd
       0.11225 -0.1472643 0.055923946 -0.100530274
0001e0 55 3a bc bd df 74 ab 3d 80 d1 25 bd 18 da 80 3d
       -0.091908135 0.08371901 -0.040482998 0.06291598
0001f0 28 ee a1 3d cb 4d 3b be 69 51 3e bd b2 68 39 3c
       0.07906753 -0.18291394 -0.046464358 0.011316465
000200 6f b1 b0 bc f4 63 3f be da 8e 81 bc 3b c7 12 be
       -0.021568982 -0.18690473 -0.015815187 -0.14333813
000210 52 88 6d bc eb d7 26 be 02 9f de 3d c4 1d 64 be
       -0.014497833 -0.16293304 0.10870172 -0.2227698
000220 db 01 65 bd 3f 24 31 be 3a d9 ef bd a1 25 d0 bc
       -0.055909973 -0.17298983 -0.117113546 -0.025408568
000230 61 57 cf 3d 61 ee 09 3e fa 7c f3 bd 3d cb f8 bd
       0.10124088 0.1346984 -0.11889072 -0.121481396
000240 8d 37 f6 bc d0 20 a0 bd 82 2e 87 bd 32 b6 72 3b
       -0.030055786 -0.078187585 -0.066006675 0.0037034866
000250 21 ad 29 3e bf 0e e5 3d dd d6 c6 bd 20 b0 ab bd
       0.1656995 0.11184453 -0.09708951 -0.083832026
000260 6d 9a 66 bd 98 d8 c7 bd 22 6c 29 3e 52 24 31 3d
       -0.056299616 -0.09758109 0.16545156 0.04324753
000270 88 8f b7 3d a1 4c d0 bc 93 cb bb bd 7c 28 1b 3e
       0.08962923 -0.025427165 -0.09169688 0.15152162
000280 83 7a c5 bd 0d 29 34 be e2 7e 6b 3e 68 d3 81 3e
       -0.09642508 -0.17593785 0.2299762 0.25356603
000290 00 93 f7 be fa ad 7f be a9 57 01 3e de 60 18 be
       -0.4835434 -0.2496871 0.12631096 -0.14880702
0002a0 6c 53 31 3e ad 0d 9e 3e 10 cb 52 3d 4f 0f 1f be
       0.17316979 0.3086981 0.051463187 -0.15533184
0002b0 17 15 b3 3b 15 da 17 bf a2 fb 3e be b6 95 4e be
       0.0054651606 -0.5931714 -0.18650678 -0.20174298
0002c0 03 c7 34 bf 30 e1 30 3e 6a b9 e1 3e af 21 d7 bc
       -0.7061617 0.17273402 0.44086772 -0.026261179
0002d0 c0 20 14 3c a1 5c 99 3e f7 24 f3 be ed 95 15 be
       0.009041011 0.29953483 -0.4748914 -0.14607973
0002e0 40 ed af 3e fe af 59 be 3a d1 35 3e 14 ee 52 3f
       0.34360695 -0.21258542 0.17755595 0.8239453
0002f0 95 c6 04 3f 26 ea 5f 3d 4b 9a 25 be 6a 9d 87 3d
       0.5186551 0.05466666 -0.1617214 0.06621821
000300 42 3c 7f be be 2c 0a be c3 98 37 be 6b 13 9e 3d
       -0.2492533 -0.1349363 -0.17929368 0.077185474
000310 b2 2e e3 3c 52 db 5b be a6 82 99 3d c7 22 64 be
       0.027732227 -0.21470383 0.07495622 -0.22278892
000320 ef b3 71 3d db fb d2 bc ca a7 8a be cd 21 5e 3d
       0.05900949 -0.02575486 -0.27081138 0.054231454
000330 6f da fe bc 45 a2 b2 bd ae 21 23 be 04 ac 86 be
       -0.031110017 -0.08722357 -0.15930817 -0.26303113
000340 d8 a3 bd 3d 05 8d 05 be e0 94 fa bd 7b 9b ae 3d
       0.09259766 -0.13042076 -0.12235427 0.08525749
000350 5e f0 39 be 8e a8 2b be 46 91 43 3c 24 5b af 3c
       -0.18158099 -0.16763517 0.011936491 0.021405764
000360 f2 99 b4 3d 69 bd 90 3d 28 ea a6 3c d5 e6 09 be
       0.08818425 0.07067377 0.020375326 -0.13466962
000370 72 c3 a8 3d 6e f0 49 3d e3 a6 a1 bd ba 92 eb 3d
       0.08240403 0.049301557 -0.07893159 0.11502595
000380 0a 52 dd 3d 46 3a 40 be 46 bb 56 be ad 2e 7c bd
       0.10806663 -0.1877223 -0.20969877 -0.06156795
000390 e9 01 40 be df 2f a7 bd 71 fc 04 be e0 5e 34 bd
       -0.18750729 -0.081634276 -0.12986924 -0.044035792
0003a0 a7 b4 72 be 4e 2e 40 be f5 27 bf bd 87 9d 33 bc
       -0.23701726 -0.18767664 -0.09333793 -0.01096285
0003b0 7d bf 79 be cd 29 b9 3b 1a 67 39 be 8b 8d 09 be
       -0.24389453 0.005650735 -0.18105736 -0.134329
0003c0 a2 2c 8d 3d 33 8b d4 3d cf 97 02 bc f0 9b cf bd
       0.06893279 0.10378113 -0.007970764 -0.101371646
0003d0 ef 6a 2a bd 42 5c 17 3e f3 d0 20 be d4 b2 32 3e
       -0.041605886 0.14781287 -0.15704708 0.1745103
0003e0 07 90 e7 bd 60 4d 82 3d 75 26 32 3e cd 00 08 be
       -0.11306768 0.06362414 0.17397483 -0.13281555
0003f0 0b e3 e4 bd 76 2b e5 bd 44 13 98 bd 4f 15 6f 3c
       -0.111761175 -0.1118993 -0.074255496 0.014592483

sequential_11/conv2d_39/Conv2D f4 [32, 3, 3, 16]
000000 b7 cb cd bd ce 5d 9d 3d 0f e9 8e bc ce d7 df bc
       -0.10048621 0.076839074 -0.017445115 -0.027324583
000010 90 81 c6 3d 7f e1 2f 3d 35 d8 b7 bd 02 3d a3 bc
       0.09692681 0.04293966 -0.08976785 -0.019926552
000020 59 c3 b5 3d 49 81 91 3c aa ea 98 3d b8 00 5c 3d
       0.0887515 0.017761843 0.074666336 0.053711623
000030 a9 e9 49 3d 23 7a 4a 3d a8 8c 7f 3c 32 9e dc 3d
       0.0492951 0.049432885 0.0155975 0.10772361
000040 7b 62 be 3d 8e 98 99 3d 3c 57 7f bd 75 42 bd 3d
       0.092961274 0.074998006 -0.062339053 0.09241191
000050 15 a3 97 bd ff 5a ca bd 69 fe 94 3d 55 ca e1 bd
       -0.07404152 -0.098806374 0.072750874 -0.1102492
000060 6b 83 48 3d c1 db 0b 3d 8b cd 11 3d 9a 9b c1 3b
       0.048953455 0.03414512 0.03559641 0.0059084417
000070 a7 3e c3 bb 18 9a 9f bd 0c d1 7c bd 11 28 ba bd
       -0.0059583965 -0.07793063 -0.0617228 -0.09089673
000080 26 a4 9e bc bb 5f d6 3d b3 92 4c bd 27 3d 92 3d
       -0.019365381 0.10467478 -0.04994459 0.0714057
000090 39 1b aa bd 3c 91 16 bb 2a 3f ec bd e0 cc b4 bb
       -0.083059736 -0.002297475 -0.11535485 -0.005517587
0000a0 5a 81 8b ba fa cf ae bc 7a b7 d6 bc e0 82 cb 3c
       -0.0010643408 -0.021339405 -0.026210535 0.02484268
0000b0 f5 e7 c0 3d a1 16 4f bd 1f b6 c7 3d 5b eb 9a bd
       0.09419242 -0.05055869 0.09751534 -0.07564422
0000c0 45 32 2b 3e 15 4a 61 3d 95 ca 5a 3d 39 6c be bd
       0.16718395 0.05500229 0.053415854 -0.092979856
0000d0 bb f3 14 3d 10 31 6e bd 01 d0 ea 3a 9b d2 0c bc
       0.036365252 -0.05815226 0.0017914773 -0.008595134
0000e0 0d 87 d4 bd ff d6 9a bd 78 4a 08 bd ca 99 43 3d
       -0.103773214 -0.075605385 -0.033274144 0.047754087
0000f0 e3 56 22 bd 1c 2a d7 bd 5b ae 7d bd dc 4d 1b 3d
       -0.039633643 -0.105060786 -0.061933856 0.03791605
000100 2d 6b d3 3b 58 98 27 3d 19 7d bb 3b f3 c6 b0 bd
       0.0064519853 0.04091677 0.0057217 -0.086316966
000110 54 f4 9a bd 90 cf a7 bd b2 14 92 3d c5 92 bc 3d
       -0.07566133 -0.08193886 0.071328536 0.092076816
000120 24 5d e8 bd 8a 92 dd bc 26 e3 05 3e 80 01 a7 bd
       -0.1134589 -0.027047414 0.13074932 -0.08154583
000130 a7 24 8a 3c f5 78 32 3d ad 7b 02 bd fe 11 7c bd
       0.01686318 0.043572385 -0.031856228 -0.061540596
000140 38 ec 85 3d 7e 85 4e bd a4 3e c8 bc 13 91 03 bc
       0.06539196 -0.050420277 -0.024443932 -0.008030194
000150 c9 7e d9 bd c2 a2 6f 3d c2 e6 4b bd 41 de d0 3d
       -0.106198855 0.058504827 -0.049780615 0.101986416
000160 c1 16 aa 3c b1 4d d9 bd 91 ac 8a 3d 0c 29 d5 bd
       0.020762803 -0.106105216 0.06771196 -0.1040822
000170 00 37 7b bd 6b 59 39 bd 9c 7d 82 bd 19 95 22 bd
       -0.06133175 -0.04525129 -0.06371614 -0.03969297
000180 2c f7 88 3d f3 6c 26 3c 82 09 cc 3d e3 b1 c4 bd
       0.06687769 0.010157811 0.09962751 -0.09604242
000190 ed 6f c4 3c 6c 93 1e bd 5a 55 f9 3d 43 b6 df bc
       0.023979152 -0.03871481 0.12174483 -0.027308589
0001a0 95 48 c1 bd 2d d6 e9 bd 25 88 65 3d b1 97 84 bd
       -0.09437672 -0.11417804 0.05603804 -0.06474245
0001b0 94 8b f7 bd 61 7a f5 bd a5 6f 77 3d 3f 62 a3 3d
       -0.12087169 -0.119862325 0.060409207 0.07977723
0001c0 b4 58 81 3d a3 3b bd 3d 8b 69 b0 bc 84 d1 a5 bd
       0.06315747 0.092398904 -0.021534702 -0.080966026
0001d0 37 a7 dd 3d e9 f0 b8 3d c5 39 17 be f8 5b 9b bd
       0.10822909 0.09030325 -0.14768131 -0.07585901
0001e0 e4 da 8d bd eb fb b3 bc 2e bb 41 3d 3d 52 85 bd
       -0.06926516 -0.02197071 0.04729765 -0.06509826
0001f0 0f 47 99 bd 4c 44 c3 bd 58 e4 c0 bd 59 ef 0c bd
       -0.074842565 -0.09534511 -0.09418553 -0.034407947
000200 76 c0 38 3d 74 b8 b4 bc ea 0b 73 3d f7 b2 b3 bd
       0.04510542 -0.02206061 0.059337534 -0.08774369
000210 f5 74 c4 bd 2b 4a 0e bd 9a 70 1a 3c f1 54 14 3d
       -0.0959262 -0.0347387 0.00942626 0.03621382
000220 d3 84 3c 3d 80 48 60 bd eb 1a 37 3d 01 ab 80 bd
       0.04602511 -0.05475664 0.044703405 -0.062826164
000230 07 bc 3d bc ba 4c d0 3c 90 99 78 3d 86 03 e2 3d
       -0.011580474 0.025427211 0.060693324 0.11035828
000240 ca 7d ad 3d 5d 8d 8e bd 97 70 52 bd 5b a2 86 3d
       0.08471258 -0.06960557 -0.051376905 0.065739356
000250 b3 3a 8c bc 70 e6 26 3c 73 66 d8 3d 76 f4 20 3d
       -0.017117834 0.0101867765 0.10566416 0.039295636
000260 73 93 ca 3c e3 94 40 bd 15 e3 09 3d cc 37 e4 bd
       0.024728512 -0.04701699 0.033663828 -0.11143455
000270 95 54 d0 3d e0 0d 68 bd 9f 6e 18 bd 06 21 8e 3d
       0.10172383 -0.056653857 -0.03721487 0.069398925
000280 72 79 c0 3d 53 b6 ad 3d 4c 39 05 3c 26 38 d9 3d
       0.09398164 0.08482041 0.008131336 0.106064126
000290 86 b5 ba bc 64 fd 9d 3c 70 55 0e be aa 6f 18 3c
       -0.022791635 0.019285865 -0.1389978 0.009303967
0002a0 d2 b0 da bd 68 4c 6a 3c 52 a9 4a 3d 32 c7 23 3d
       -0.10678257 0.014300443 0.049477883 0.03998489
0002b0 10 b1 aa 3d 91 30 4c bc c5 0b 15 3d 12 e8 d6 3d
       0.08334553 -0.012462751 0.036388177 0.10493483
0002c0 0e c5 02 be 78 95 db 3d 3c 03 c9 3d 77 07 dd bd
       -0.12770483 0.10721868 0.0981507 -0.107924394
0002d0 1a 2b 7f 3d dd 5a 58 bb 1f 4b aa bd 5b 36 2a bd
       0.062296964 -0.0033013143 -0.083151095 -0.041555744
0002e0 c2 84 b1 bd b7 1d ad bd ff 90 33 3c 6d 40 d8 3d
       -0.086679 -0.08452933 0.010959863 0.10559163
0002f0 a7 be 1b bd 4d f0 8c bd 18 b5 2a 3d 8b ea f3 3d
       -0.038023617 -0.06881771 0.04167661 0.1190997
000300 45 00 24 3e 17 20 d8 bd 3e 10 1a 3c 80 72 85 bd
       0.16015728 -0.10552996 0.0094032865 -0.0651598
000310 c2 25 db 3d 89 bc ce bd 53 5e 83 bb 89 59 ae 3c
       0.10700561 -0.10094554 -0.004009047 0.021282928
000320 2d eb e5 bd 5b fb 2d bc 98 f5 f1 3d db ae a6 bd
       -0.11226497 -0.01061901 0.118144214 -0.0813882
000330 1c 6d ce bd a2 ae c7 bd 0f 88 20 3d 3d 72 ce bd
       -0.10079405 -0.097501054 0.039192256 -0.10080383
000340 f4 3a 77 bd 9d 96 4b bc 67 15 08 3d 0c 7d 69 bd
       -0.060358956 -0.012426046 0.033223536 -0.05700402
000350 83 e6 b4 bd 09 20 00 3d 52 77 40 3d a7 8c 96 3d
       -0.08833029 0.03128055 0.046988793 0.07351046
000360 df a7 eb bb d2 40 f1 3c 7a a2 4a bd ed 51 ef bc
       -0.0071916427 0.029449854 -0.049471356 -0.02921387
000370 c5 e3 9f bd 46 0a d8 3c 88 e9 11 3d 9f b8 4e bd
       -0.078071155 0.026372086 0.035623103 -0.050469037
000380 c1 fe 3e bc ac af a3 bd 87 ad 95 bd e8 b9 33 3c
       -0.011657418 -0.07992491 -0.07308488 0.0109696165
000390 1a a0 af bd ec e8 bc bd 39 46 23 be 0a e7 bd bd
       -0.08575459 -0.09224114 -0.15944757 -0.09272583
0003a0 54 ee cc bd 55 d9 83 3c ae 83 05 be 48 c6 1a bd
       -0.10006395 0.016094843 -0.13038513 -0.037786752
0003b0 a0 83 c4 bd c9 6e 19 bd 8c 21 a2 3d 0c 1c 43 bd
       -0.09595418 -0.03745917 0.07916555 -0.04763417
0003c0 33 06 26 bd b0 a2 62 bb 3f bf e6 3d e2 ef 82 3d
       -0.040533256 -0.0034581833 0.11266946 0.0639341
0003d0 0a a9 d5 bc 29 da b7 3d a5 bf 1e bc e0 50 cc bd
       -0.02608158 0.089771576 -0.009689246 -0.09976363
0003e0 80 4e 99 bd 4c f9 eb 3d d1 67 c0 bd 4f b8 88 3d
       -0.07485676 0.11522159 -0.093948014 0.06675779
0003f0 eb da db bd 13 45 b1 3d 54 02 b7 3c 55 33 73 3a
       -0.10735115 0.08655753 0.022339977 0.00092773634
